data.pth (torch, 5399 bytes, 6 tensors)

l1.weight f4 [8, 50]
0	0x3c9a0eef	0.018805949
1	0x3e97dd3e	0.29660982
2	0x3f6cf868	0.9256654
3	0x3e530ed3	0.20611124
4	0x3f8fa900	1.122345
5	0x3f955dde	1.1669271
6	0x3e7671c7	0.2406684
7	0xbf81a714	-1.0129113
8	0xbe038572	-0.12843874
9	0x3ed31139	0.41224077
10	0x3f191073	0.59790725
11	0x3f3765b5	0.7163957
12	0x3f142df1	0.578826
13	0xbf825ac0	-1.0183945
14	0xbf789428	-0.9710107
15	0xbf82703a	-1.0190499
16	0x3f2443a7	0.6416573
17	0x3cd8dda8	0.026472881
18	0xbe038e35	-0.12847216
19	0xbed5a39c	-0.41726387
20	0x3de9e020	0.114197016
21	0x3edafb87	0.42770025
22	0x3f65ac53	0.8971607
23	0x3f1ca93f	0.6119575
24	0xbf826afa	-1.0188897
25	0x3f4cf7da	0.8006569
26	0x3f3f7e6d	0.74802285
27	0x3ecd40ae	0.4008841
28	0xbefb77c5	-0.49114814
29	0x3f069de1	0.52584654
30	0x3f76e618	0.96444845
31	0xbf19f446	-0.60138357
32	0x3f3d5571	0.739585
33	0x3f3c2544	0.7349436
34	0x3f62a141	0.88527304
35	0xbea34cfe	-0.31894678
36	0xbf0722ac	-0.5278728
37	0x3f3f61b4	0.7475846
38	0xbe87654b	-0.26444468
39	0x3f855dbe	1.0419233
40	0x3ead7657	0.3387935
41	0x3f4a780c	0.79089427
42	0x3e87565e	0.2643308
43	0xbed5cf98	-0.41759944
44	0x3ea5809b	0.3232468
45	0x3e3e422f	0.18579935
46	0x3ee5646b	0.44803175
47	0x3f42b4b8	0.76057005
48	0x3eae7bd8	0.3407886
49	0xbf8268cc	-1.0188231
50	0x3fa1990b	1.262483
51	0xbf816653	-1.0109352
52	0xbd840432	-0.06446113
53	0x3f9f1281	1.2427522
54	0xbf6edeaa	-0.9330851
55	0xbef9af5d	-0.48766604
56	0x3ec07efe	0.37596887
57	0xbf30cc2a	-0.6906153
58	0x3f0b7d2f	0.5448789
59	0xbed3bb68	-0.41353917
60	0x3ef39940	0.47577858
61	0x3df12ab6	0.117757246
62	0x3f319ba1	0.69378096
63	0x3ec1b914	0.37836516
64	0x3eeb7a6a	0.45991832
65	0x3f06028b	0.5234763
66	0x3f4ee27f	0.80814356
67	0x3fad616f	1.3545359
68	0x3fa1952d	1.262365
69	0xbf816300	-1.0108337
70	0x3f48097f	0.7813949
71	0x3f2816f2	0.6566001
72	0xbf0346cf	-0.5127992
73	0x3f81cf2b	1.0141348
74	0x3f9599aa	1.168752
75	0x3f82be81	1.0214387
76	0x3f70fd88	0.9413686
77	0x3f16647c	0.58747077
78	0x3d0e4851	0.034736935
79	0x3f2d06b3	0.6758835
80	0xbf3e129e	-0.7424716
81	0xbf01a3b7	-0.50640434
82	0xbefb84aa	-0.49124652
83	0xbe5c54c7	-0.21516715
84	0xbc3c3749	-0.01148779
85	0x3fa8825f	1.3164786
86	0x3e0f0fe2	0.13970903
87	0xbee899c8	-0.45429826
88	0xbe55e0cd	-0.20886536
89	0xbee5340a	-0.44766265
90	0xbf18e988	-0.5973134
91	0xbf0e7878	-0.5565257
92	0x3e91dd34	0.28489077
93	0xbea51598	-0.32243037
94	0x3f14c567	0.5811371
95	0x3f72a99b	0.9479005
96	0x3f083ad5	0.5321477
97	0xbe1293dd	-0.14314218
98	0x3eeda1e8	0.46412587
99	0xbf4a7870	-0.79090023
100	0xbda2fb0f	-0.07958042
101	0x3f8006f1	1.0002118
102	0xbf6e8480	-0.9317093
103	0x3f0d4d4e	0.5519608
104	0xbf4a4bb4	-0.79021764
105	0x3ed58f44	0.41710865
106	0x3f3d02a1	0.73832136
107	0x3f4c27b3	0.79748076
108	0x3f6ab2a0	0.9167881
109	0x3f15ea90	0.5856104
110	0xbe8e0ba0	-0.27743244
111	0xbea30144	-0.31836903
112	0xbe6b01eb	-0.2294995
113	0xbdc1b950	-0.09459174
114	0xbf2cdbf5	-0.6752313
115	0xbf1ecd70	-0.6203222
116	0xbed4d732	-0.4157043
117	0xbdee985a	-0.116501525
118	0x3f0992b6	0.5373949
119	0x3eb6f81a	0.3573616
120	0x3ef45cbe	0.47727007
121	0xbeb6241d	-0.35574427
122	0xbe3f293c	-0.18668073
123	0xbf47042c	-0.7774074
124	0x3ece2c6f	0.40268275
125	0xbf2e9387	-0.6819386
126	0xbf4cb4e1	-0.799635
127	0xbe8df06c	-0.2772249
128	0x3f6c1ebd	0.922344
129	0xbe565b5b	-0.20933287
130	0x3dcaff20	0.099119425
131	0x3f2f4259	0.68460613
132	0xbeba26ad	-0.36357632
133	0x3f182771	0.5943518
134	0xbed6671e	-0.41875547
135	0x3f459553	0.77180976
136	0x3f5c9b8d	0.8617485
137	0xbe9d2551	-0.30692533
138	0xbf02f88f	-0.5116052
139	0x3ecb9021	0.397584
140	0x3f3b88a7	0.7325539
141	0xbf065366	-0.52471006
142	0x3f5a8213	0.8535473
143	0x3f37266d	0.7154301
144	0xbe967a76	-0.29390305
145	0x3ef95a2d	0.4870161
146	0x3f437d40	0.7636299
147	0x3f1dd248	0.6164899
148	0xbebc1947	-0.36738035
149	0x3f59a532	0.85017693
150	0x3facb739	1.3493415
151	0xbf72404e	-0.9462937
152	0x3f32a100	0.69776917
153	0xbf48682c	-0.78283954
154	0xbebac17e	-0.36475748
155	0xbf2070d5	-0.6267217
156	0x3f182701	0.59434515
157	0xbf2758c4	-0.6536982
158	0xbf71959f	-0.9436893
159	0xbf149b56	-0.58049524
160	0x3eec1cea	0.4611581
161	0x3f3dafc1	0.74096304
162	0x3ef72909	0.48273495
163	0x3f8c85c9	1.0978328
164	0x3f81d3ff	1.0142821
165	0x3f96ed27	1.1791123
166	0x3eea7a3b	0.4579638
167	0x3fa8ecc5	1.3197256
168	0x3f4c6032	0.7983428
169	0xbf7234d2	-0.9461185
170	0xbf0404bc	-0.51569724
171	0x3f12915d	0.57253057
172	0xbd89676e	-0.06709181
173	0x3ec7c04e	0.39013904
174	0x3e62f637	0.22164236
175	0x3f32b9ae	0.69814575
176	0x3f352a6f	0.70767874
177	0x3ed112a1	0.40834525
178	0x3f198424	0.59967256
179	0x3eec7709	0.46184567
180	0xbf61631c	-0.88041854
181	0xbe5e7289	-0.21723379
182	0xbe5bc14d	-0.21460457
183	0xbec4fbbe	-0.38473314
184	0x3f30e7ed	0.6910389
185	0x3fa8d246	1.318917
186	0x3eedd85f	0.4645414
187	0xbe22d85a	-0.15902844
188	0x3f0e0c59	0.5548759
189	0xbf470d3c	-0.7775457
190	0xbebb4c91	-0.36581853
191	0xbdc6f9db	-0.09715625
192	0x3f1eabb7	0.61980766
193	0xbe457dc1	-0.19286253
194	0x3ef86997	0.4851806
195	0xbedc4708	-0.43022943
196	0x3f12c87c	0.57337165
197	0xbe5f590b	-0.21811311
198	0x3f046017	0.5170912
199	0xbf29d18a	-0.66335356
200	0xbe29f7d3	-0.16598444
201	0x3f80bc8f	1.0057544
202	0xbe5011f7	-0.20319353
203	0x3ead0a7f	0.3379707
204	0x3f23b0a9	0.63941437
205	0x3f18d41c	0.59698653
206	0x3dd807d2	0.105483666
207	0x3f6712c3	0.90263003
208	0xbf45139f	-0.76983064
209	0x3f059d64	0.52193284
210	0xbebda40a	-0.37039214
211	0xbd3a758b	-0.045522254
212	0xbe8ea917	-0.2786338
213	0x3f805a60	1.002758
214	0xbf02e2af	-0.5112714
215	0xbf4ae6c0	-0.79258347
216	0xbecc65d2	-0.39921433
217	0xbdf352c9	-0.118810244
218	0xbe135f9c	-0.14391941
219	0xbe01d37d	-0.12678333
220	0x3e9123ff	0.28347775
221	0xbee6397d	-0.44965735
222	0x3f08af59	0.5339256
223	0xbf5957fc	-0.8489988
224	0x3d749262	0.059709914
225	0xbf5946fd	-0.84873945
226	0xbf5952b5	-0.84891826
227	0xbe68f3c7	-0.22749244
228	0x3f70ccde	0.940626
229	0xbe4e5d5d	-0.20152803
230	0xbf56da21	-0.8392659
231	0x3f328d28	0.6974664
232	0x3ea16f83	0.3153039
233	0x3edc20ff	0.42993924
234	0xbdf09044	-0.117462665
235	0x3f8fa762	1.1222956
236	0x3f772648	0.9654279
237	0x3ef0a4fd	0.47000876
238	0x3faedcbf	1.3661116
239	0x3f09ac05	0.53778106
240	0x3ee4ad9d	0.44663706
241	0x3effe9ba	0.49983007
242	0x3e65a8ad	0.22427626
243	0x3f1c1ff4	0.60986257
244	0xbe8dc968	-0.27692723
245	0x3ea5b30b	0.3236316
246	0x3e25e75a	0.16201535
247	0x3eeca245	0.46217552
248	0xbe9fae4b	-0.31187662
249	0x3f834541	1.025551
250	0xbf447d6c	-0.7675388
251	0x3f2baa6c	0.6705692
252	0xbf448214	-0.76760983
253	0xbe9062c9	-0.28200367
254	0xbf447d94	-0.76754117
255	0xbebde513	-0.37088832

l1.bias f4 [8]
0	0x3f826c01	1.018921
1	0x3f8162d9	1.0108291
2	0x3f8ab639	1.083686
3	0x3f723a92	0.9462062
4	0x3f594b99	0.8488098
5	0x3f44829b	0.7676179
6	0x3f4c258f	0.7974481
7	0x3f7da150	0.9907427

l2.weight f4 [8, 8]
0	0xbe09fc63	-0.13475184
1	0x3e7f6a3a	0.24942866
2	0xbe62da93	-0.22153692
3	0xbe230b1b	-0.15922205
4	0x3db2c01b	0.087280475
5	0xbebe81f8	-0.37208533
6	0x3bc9b05e	0.006155058
7	0x3e1dcb75	0.15409644
8	0x3ff6c88e	1.9279954
9	0x3fd05d61	1.6278497
10	0xbd8abf24	-0.067747384
11	0x40061b78	2.0954266
12	0xbf52ce62	-0.82346165
13	0xbfd52418	-1.665164
14	0x3f51b0ba	0.8191029
15	0x3f640c0a	0.8908087
16	0xbf40dfbf	-0.7534141
17	0x3fb8777c	1.4411464
18	0x3f6b3291	0.91874033
19	0x3d6329f5	0.055459935
20	0xbf810799	-1.0080444
21	0x3f04066c	0.515723
22	0x3fca3bef	1.579954
23	0x3f8b0184	1.0859838
24	0x3cf0a810	0.029377013
25	0xbf6f8daa	-0.9357554
26	0x3f3d33b4	0.7390702
27	0xbeedbe92	-0.46434456
28	0x3e857723	0.26067457
29	0x3f515c49	0.8178144
30	0xbfc0b325	-1.505467
31	0x3e58fffa	0.21191397
32	0x3f43b21b	0.7644364
33	0x3f74b3a9	0.9558664
34	0x3fdcf536	1.7262332
35	0xbdd35e82	-0.1032076
36	0x3fe08d64	1.7543149
37	0x3f0cae87	0.5495381
38	0xbff31ccc	-1.8993163
39	0xbf59da63	-0.85098857
40	0xbf3b5f2e	-0.7319211
41	0xbf73cb6e	-0.95232284
42	0x3fa38381	1.2774507
43	0xbf84ed8a	-1.0384991
44	0x3e44b504	0.19209677
45	0x3fde33f7	1.7359608
46	0xbe2ca9e0	-0.16861677
47	0x3f9c6eca	1.222131
48	0xbfd74250	-1.6817112
49	0xbe1b306c	-0.1515519
50	0x3f14b8cd	0.58094484
51	0x3faab725	1.3337141
52	0x3fdddd28	1.7333117
53	0x3f82a5c6	1.020684
54	0x3f81e782	1.0148776
55	0xbd935e7f	-0.07195758
56	0x3fe77bde	1.8084676
57	0xbfb01854	-1.3757424
58	0x3f573237	0.84060997
59	0xbfa03778	-1.2516928
60	0x3f2efc5b	0.68353814
61	0x3e83c56a	0.25736552
62	0x3fce4e1e	1.611759
63	0x3fbc3c1b	1.4705843

l2.bias f4 [8]
0	0xbea8787b	-0.3290442
1	0x3f860d57	1.0472821
2	0x3d9faa89	0.07796199
3	0xbe2c5199	-0.16828002
4	0x3f1ed763	0.62047404
5	0x3e8cbeb1	0.27489236
6	0xbb4bca3f	-0.003109589
7	0x3ed3d84f	0.41375968

l3.weight f4 [17, 8]
0	0xbe06d521	-0.1316724
1	0xbf10a821	-0.56506544
2	0x3e8eae44	0.2786733
3	0xbea98903	-0.33112344
4	0xbcafe19b	-0.021469882
5	0x3f02f4d5	0.51154834
6	0xbfc4dfa2	-1.5380747
7	0xbe32d8f1	-0.17465569
8	0x3e833712	0.25627953
9	0xbe09add3	-0.13445215
10	0x3d5b46ee	0.05353444
11	0xbfdd6a5c	-1.7298083
12	0xbe99589c	-0.29950416
13	0xc01bcbc2	-2.4343114
14	0x3ef53b6f	0.47896907
15	0xbf5807b0	-0.8438673
16	0xbd423f0b	-0.047423404
17	0x3eb89b8f	0.36056182
18	0x3f343e88	0.70407915
19	0xbea650a3	-0.32483396
20	0xc03fac11	-2.994877
21	0xbfd16be3	-1.636105
22	0x3ee13dd4	0.43992484
23	0xbf949fa3	-1.1611217
24	0xbe88f43b	-0.26748833
25	0xbf7092ce	-0.93974006
26	0x3e67f859	0.22653331
27	0xc0061d0c	-2.0955229
28	0xbffa1bba	-1.9539711
29	0x3eb886b5	0.36040273
30	0xbdf2249a	-0.118233874
31	0x3ed6fb22	0.41988474
32	0x3e81ee46	0.253771
33	0xbd783e54	-0.060606316
34	0x3e7284b3	0.23683433
35	0xbffb1bac	-1.961782
36	0xbfd05a65	-1.6277586
37	0x3d279358	0.040912002
38	0xc0322ce4	-2.78399
39	0x3f2d36ff	0.6766204
40	0x3e19da41	0.15024664
41	0xbea4ef00	-0.32213593
42	0xc00f9888	-2.2436848
43	0xbfe6b2f7	-1.8023366
44	0x3f0442ae	0.51664245
45	0xbe777a59	-0.24167766
46	0x3ecbeb04	0.3982774
47	0xbf140e5c	-0.5783441
48	0x3e7d6f48	0.24749482
49	0x3f303932	0.68837273
50	0x3e083e86	0.13305101
51	0xbf5daa3f	-0.865879
52	0xbe671f75	-0.22570594
53	0xbfd09a1a	-1.6297028
54	0xbf43ce2f	-0.76486486
55	0xbfcda057	-1.6064557
56	0x3d8a8c91	0.06765092
57	0xbf8e3ed3	-1.1112922
58	0xbfb57fd0	-1.417963
59	0x3fa40a07	1.281556
60	0x3dea4d81	0.11440564
61	0x3ed6b931	0.41938165
62	0xbf0d1097	-0.5510344
63	0x3dc80896	0.09767263
64	0x3bf4c66c	0.007469943
65	0x3f849602	1.0358279
66	0xbf9ffa08	-1.2498178
67	0xc013727b	-2.3038623
68	0x3cd6019f	0.02612382
69	0xbf81dbbb	-1.0145181
70	0xc01ffe1e	-2.499885
71	0xbf3fbbf9	-0.748962
72	0xbeb7bc43	-0.3588582
73	0xbddb5121	-0.107088335
74	0x3e929d88	0.28635812
75	0xc025ae86	-2.588777
76	0x3f819fd4	1.0126901
77	0xbfe8f777	-1.820052
78	0xbfd93cca	-1.6971676
79	0xbf3c3b51	-0.7352801
80	0x3e1aabdd	0.15104623
81	0x3ec76a55	0.38948312
82	0xbeb851a9	-0.35999802
83	0xbfa5387b	-1.2907861
84	0xbfb10a0b	-1.383119
85	0xc006600b	-2.099612
86	0xbfc18125	-1.5117537
87	0x3f687bae	0.9081372
88	0xbe879257	-0.26478836
89	0xbdde88f2	-0.10865964
90	0xbfd74a6b	-1.6819586
91	0xbf462948	-0.7740674
92	0x3f182854	0.59436536
93	0xbe3116e6	-0.17293891
94	0xbfd8045f	-1.6876334
95	0x3efa3994	0.48872054
96	0x3e9b6c37	0.30356
97	0xba5448f6	-0.000809803
98	0x3ee16a87	0.44026586
99	0xc0162491	-2.3459818
100	0xbf827c24	-1.0194135
101	0xbf268713	-0.65049857
102	0xbea2c106	-0.3178789
103	0x3e2b2368	0.16712725
104	0xbe163876	-0.14669976
105	0xbfe2f929	-1.7732288
106	0xbe2ab36e	-0.1667001
107	0xbeab3328	-0.33437467
108	0xbf179dd4	-0.592252
109	0x3eb4731b	0.35244069
110	0x3ec51f17	0.38500282
111	0x3da8dad2	0.08244862
112	0xbd49fbce	-0.049312405
113	0x3f62f45e	0.88654125
114	0x3f1e3da4	0.61812806
115	0xbf8c5b15	-1.0965296
116	0xbff057ce	-1.8776796
117	0xbfc551d1	-1.5415593
118	0xc0186f72	-2.381802
119	0xbe90fd73	-0.28318366
120	0xbd5a2cac	-0.05326526
121	0xbf3e297d	-0.74282056
122	0x3e9773d1	0.29580548
123	0xbff6fc11	-1.9295675
124	0x3e356caa	0.17717233
125	0x3e0b0b34	0.13578492
126	0xbe1b2d52	-0.15154007
127	0xbf9e3db1	-1.2362577
128	0x3e597ba7	0.21238576
129	0xbfbee341	-1.4913102
130	0xbf8ac9ff	-1.0842894
131	0x3e9f45b8	0.3110788
132	0x3eb0414a	0.34424812
133	0x3d4fe568	0.05075589
134	0x3eb74548	0.35795045
135	0xbf4bbfbf	-0.79589456

l3.bias f4 [17]
0	0xbe163c07	-0.14671336
1	0xbb45c8a6	-0.003017941
2	0x3d9035f9	0.070415445
3	0xbe89567a	-0.2682379
4	0xbdea8e61	-0.11452938
5	0x3f129207	0.5725407
6	0x3ecb1c69	0.39670113
7	0x3cc695e2	0.024241392
8	0x3f0c8188	0.5488515
9	0x3d557a54	0.052118614
10	0xbd82adf7	-0.063808374
11	0xbe062ea2	-0.13103727
12	0xbeab4692	-0.33452278
13	0xbe0a8cd9	-0.13530292
14	0xbd9cc940	-0.07655573
15	0xbd7b3f32	-0.061339565
16	0xbebf0a16	-0.37312382
